models/lstm_anomaly_model.ckpt (torch, 221317 bytes, 11 tensors)

lstm.weight_ih_l0 f4 [256, 7]
00000000: 01c8 1e3e d130 cabd b9f4 0bbe cd2d fd3d
00000010: 0eaf 99bd 1c0b a8bd db63 15be f3bb c0be
00000020: 90d8 d2bc 2965 de3d eef6 c0bd 8826 6cbc
00000030: 8638 be3c add9 883d 1ad3 0ebd d753 68bb
00000040: d8e9 d4bd e7c5 13bd 9023 d7bd 344b 4f3d
00000050: b453 65bd a6b1 cebe 1f30 d6bd 0cc9 9dbd
00000060: 6b89 c33d b607 cabd fcdc 233d 9aa1 00bd
00000070: 42df f7bd c64e 243e 1d08 e9bd c844 37be
00000080: 08b6 00be 0da0 7dbd 88bf 1e3e f60f 88be
00000090: b3b1 3b3e b506 5c3d 5deb 8abd e4c1 88bd
000000a0: 0c15 bbbd 555c 1ebe c89f c4bd d676 ccbd
000000b0: c59a b9bd e3b0 25be 7afd 36be 1ecb 523e
000000c0: 0401 febb 7f1d a63e 82ef a63c f91f 29bd
000000d0: 4597 a2bd 0fd6 1a3d 448a 49bd 8c7c a63d
000000e0: 9b33 583e f258 bfbc 8ede a53d a48f 11bd
000000f0: bdd0 80bd 54d7 38be ed00 893c 5ed2 b0bd
00000100: 0f1f 0dbe 9855 d63b 9e6f c33d d288 e0bc
00000110: a730 b1bb a478 b13a cffb 013e e0b0 87bd
00000120: 95be f03d b2c5 34ba 24ea ebbc ee84 25be
00000130: 200b dbbd 0123 523e a963 fdbd 5991 c0bd
00000140: 933d e9bd 7043 a2bd 41c9 943d 0915 a9bd
00000150: b2b9 5cbf 896c 253e 028a 0a3d 866c c9bc
00000160: 99ff 72be a9f6 be3d 17ef 88bb 6c51 c43d
00000170: a38d e23d a09e d23d f702 e23d 6583 fa3d
00000180: fddb 3fbd ea0d cabd ee2b d4be 9cb1 b2bc
00000190: f6b6 bb3d bccd cebd 1d93 b5bd 6949 c5bb
000001a0: 530f 813d db02 d63e 9dc2 d23d c5a6 f2b9
000001b0: 0bca 003d cd9d 313d 36d8 473d 91bc d73d
000001c0: 2bb7 13bc eec9 4b3d 61ca bdbd 7a01 a3bd
000001d0: d5b8 82be 299b 7c3e 4ea3 e8bd d7c5 2fbe
000001e0: 8730 6abe c488 c53d 5717 0a3d 613c 96bb
000001f0: 73c1 b4bd ef04 e3bd 9186 f33c 1cc9 28bd
00000200: 5e91 e73d 8b23 e4bc 39c4 c6bb cbba 4abd
00000210: fdf0 313e 3cb6 1e3d a713 79ba da73 ca3c
00000220: cc88 8f3d 7fac f4bd 3239 04bd c740 8b3d
00000230: bb37 0cbd 9da2 39be c2f8 363e 3249 063e
00000240: 9de4 9f3d 1147 e0bd f2d6 5e3c 4114 4e3e
00000250: 2117 143e 81eb 6cbd 1ccf ac3d a883 ff3d
00000260: dbe7 8c3d 7803 3b3e 2597 24be 1e26 9b39
00000270: b21a 9c3d 9608 8dbb e1cf 69be 284a e33d
00000280: ff0f f93c 0b15 43bf 8c25 d9bc e519 003d
00000290: 1610 153d 8e1a 0bbe b718 18bd 6aee f93b
000002a0: 2ad0 13bf d53c 29bc 1f1a 163d 440b b1bd
000002b0: 0845 46be 8f7f 563e a3e9 c2bc 8a8f 61be
000002c0: a00d 0c3d 818d 233e 4df8 bbbd c059 fcbd
000002d0: 7633 cf3d 5f18 243d b8a1 fa3c 9a0c dfbd
000002e0: b2ea dfbd 27b4 b73d 87b2 9f3d ee93 85bd
000002f0: 2270 57be 5119 2cbf 26bb 283e 18ab 173d
00000300: 112c 4b3d a5d4 63bd 81ca 21bc e1f5 b1bd
00000310: f99e 3abd 39cc 37be 2577 c23d d4b2 28bd
00000320: ef97 123e 1468 c83c ec7a dbbc ab13 d53e
00000330: bb26 8bbd 7ef1 88bd b782 da3d 721b b33d
00000340: 40e0 ca3d 91d1 72bd 48e4 d13e 2664 95bc
00000350: 0f72 edbd 0743 debd 514e a3bd 7ea6 163c
00000360: 47e0 063d 061e 09bf 8d97 b6bd 7fd9 adbd
00000370: 6996 d7bd 1f12 b53c abdb 6f3d e1f9 963d
00000380: f908 08bf 0c14 e93d d88b 093d b4df dcbd
00000390: f7fd 14bd f26b a23d 2e7a 803d 3037 763e
000003a0: f4bb bc3d 401d 323c be30 123b e0af 3d3d
000003b0: df38 95bd e5d5 843d 0523 14bd 1dee cbbd
000003c0: 10c6 393e 64a1 893d 41ae 143d c84d 61bd
000003d0: 17bc d83a 42e3 dcbc ddfc d6bd 9166 26bd
000003e0: d8cd 433d cf3d 9abd 55d4 03bd bb52 c1bd
000003f0: 4282 22be 6879 863d 7bfb b6bd a63d b43b
0.15505983 -0.09872592 -0.13667573 0.123622514 -0.07504092 -0.08205244 -0.14588873 -0.37643394
-0.02573803 0.108591385 -0.09422098 -0.014413483 0.023220312 0.06682143 -0.03486929 -0.0035450363
-0.10396165 -0.036077406 -0.1050483 0.05060883 -0.05598803 -0.4036991 -0.10458397 -0.07704362
0.09547695 -0.09864752 0.04000567 -0.031404115 -0.1210313 0.16045675 -0.113785006 -0.17897332
-0.1256944 -0.061920214 0.15502751 -0.26574677 0.18329506 0.053717334 -0.06783173 -0.06677607
-0.09134874 -0.1546491 -0.09600788 -0.09983604 -0.09062723 -0.16180758 -0.17870131 0.20585296
-0.007751586 0.3244438 0.020377878 -0.041290257 -0.079390086 0.0378018 -0.049204126 0.08129224
0.21113436 -0.023357842 0.080990896 -0.035537377 -0.06289814 -0.18050891 0.016724074 -0.08633874
-0.13781379 0.0065409653 0.09542774 -0.027408991 -0.005407411 0.0013539982 0.12693714 -0.06625533
0.11755101 -0.0006895914 -0.02879817 -0.1616399 -0.10695481 0.20521165 -0.12372524 -0.09402723
-0.113886975 -0.07923019 0.07264949 -0.08255965 -0.8622085 0.16154684 0.03382302 -0.02458788
-0.23730315 0.093243904 -0.0041788924 0.095858425 0.11062171 0.102841616 0.11035722 0.12232093
-0.046840657 -0.09865935 -0.41439766 -0.021813206 0.091657564 -0.100978345 -0.0886595 -0.006020714
0.06301751 0.41799054 0.10291026 -0.0004628209 0.031442683 0.04336338 0.04879018 0.10534013
-0.009015839 0.049753122 -0.09267116 -0.07959266 -0.2553164 0.24668564 -0.11359273 -0.17165314
-0.22870074 0.096452266 0.033713665 -0.0045848344 -0.0882596 -0.110849254 0.029727252 -0.041207418
0.113070235 -0.02784898 -0.006065872 -0.049494546 0.17377086 0.03874801 -0.00095015246 0.024713445
0.07008514 -0.119469635 -0.03228111 0.06799465 -0.034232836 -0.18128438 0.17868331 0.1311386
0.078072764 -0.10951055 0.013601052 0.20124914 0.14461948 -0.05784178 0.084379405 0.12476283
0.068801604 0.18263042 -0.16073282 0.00029592303 0.07622279 -0.004304002 -0.22833206 0.110981286
0.030403135 -0.76203984 -0.026507162 0.031274695 0.036392294 -0.13584349 -0.037132945 0.007627298
-0.5773951 -0.010329445 0.036646005 -0.08644727 -0.19362271 0.20947097 -0.023793047 -0.22027412
0.03419268 0.15971948 -0.09178219 -0.12321806 0.10117237 0.040062305 0.030594692 -0.108910754
-0.109334365 0.08969908 0.07797723 -0.06522356 -0.21038869 -0.6722613 0.16477641 0.037028402
0.049602572 -0.055622716 -0.009874941 -0.08689476 -0.045561764 -0.17948999 0.09495381 -0.04118617
0.1431577 0.02446369 -0.026792012 0.41616568 -0.067944966 -0.06686686 0.10669463 0.08745469
0.099060535 -0.05928189 0.40994477 -0.018236231 -0.115940206 -0.10852628 -0.07973922 0.009194968
0.03292873 -0.5356144 -0.08915625 -0.0848875 -0.10526735 0.022103367 0.0585591 0.07371879
-0.5313869 0.11380777 0.03358063 -0.107848555 -0.036375012 0.07930745 0.06273304 0.2404449
0.09215537 0.010871232 0.0022306885 0.046310306 -0.07286238 0.0648611 -0.03616621 -0.09957526
0.18141961 0.06720236 0.036298994 -0.05500582 0.0016535547 -0.026963834 -0.104974486 -0.04062516
0.04780373 -0.0753132 -0.032184917 -0.09439608 -0.15870002 0.06566125 -0.08934685 0.005500513

lstm.weight_hh_l0 f4 [256, 64]
00000000: f7cc 5f3e b6f8 ef3d c677 963d f9cf 86bd
00000010: 888e 2cbd 9624 893d efeb 033d de9f d03d
00000020: 258d f53d 8628 25be f812 413e 7733 073e
00000030: 8890 41bd 7b5a 613c 1311 1ebd e37f 27be
00000040: 7ada a23c 716c 5a3d 321f 013c 5cc7 65bd
00000050: ad01 e2bc d6ac 72bd 4b82 133e 1f8d ecba
00000060: b9a2 7dbe 1884 6f3a 0206 65bb d88c e6bc
00000070: 53f8 2d3e ae62 3abc 41f2 4abe d23e 523e
00000080: dc2e 99bd faff cb3d d3f0 0fbe 1a68 cd3d
00000090: 8a58 293d 4866 a4bd a4c9 59be 2015 673d
000000a0: 6ca2 0b3e 511e 2f3c af01 0a3c 7325 213d
000000b0: 4544 883d f584 e13d 6e73 733c 894d 70bd
000000c0: c920 103e d13f b5bb 1c31 bbba ab14 453e
000000d0: 107b 35bd 5bc7 163d 4ea1 fc3d d83b 8abd
000000e0: b4b9 58bd 3e1e 3cbd a7f2 ef3c 8ae2 803d
000000f0: 81b2 d83d 37ca 3d3e 04a3 6d3c c6fd 14be
00000100: 39a5 823c c238 323e e25d 543d a837 ac3d
00000110: a6bd 08bd 5b2c 18be 0253 70ba b1dc 03bd
00000120: f38b fc3d 98ba cdbc 3ef4 cf3d d73b b73d
00000130: 5baf 27bc a0b7 82bd 080d 9f3d 070e 143e
00000140: 4428 df3d a2da 213e dc0f 3d3d b94b 8cbc
00000150: 8fe4 bcbc da9c bd3a b9d9 1c3e 2079 193c
00000160: 7d62 39bd ac45 a53c 725c 59bc 9ee6 bebc
00000170: 168c 0e3e 049c c3bd 091d d5bd 9d89 3d3e
00000180: b204 89bd 299f ba3c 7f52 97bd bc75 c83d
00000190: 8605 913c 7486 593d 5c67 51bd 8c88 bd3b
000001a0: 0f1e e43b 24f5 2cbd bf51 5f3c 6dba a23d
000001b0: 4ef2 993d f0e3 0bbd 558b 40bc 950b 1e3d
000001c0: 7247 353d 8ecf 82bd 0283 973d 5d0d c33d
000001d0: 004b 38bd 6382 423d 7054 a4bd 09d6 9ebd
000001e0: b333 56bd c230 d53c 3f52 c4bd c96f eebc
000001f0: a65d db3a 4d37 ccbd 7397 cebd 377c 1cbe
00000200: 88c0 153e 234c 23bd 0c08 32bd 5435 c6bd
00000210: 1523 1abd 5bbf 1a3e 8300 1a3c 1104 243e
00000220: 0d5c 373e 4488 6ebd 1b55 f33d e9ea 48bd
00000230: a868 a5bd f247 933d 019d f73d c0e7 f2bd
00000240: e837 623d 2049 403e 6d4a e4bd aa8c 69bd
00000250: aadb 14be 7955 d73d 4f73 2d3e 214f 263e
00000260: b48b 413d 4fe0 2b3d b37a aabd be1c 6e3e
00000270: 2a2e e03d 2b69 853d 9108 42be 395b 193e
00000280: 9976 d73b 8307 0bbe 6c43 b0bd cc42 093e
00000290: 3bfb 9b3c 872c fdbd e782 913c 09fd b63d
000002a0: e00e 5ebd 67be 3d3c 14ce 58be df7b 0e3e
000002b0: 1e7f 4d3e a411 39bd b00d 2a3d 66f2 ad3d
000002c0: 42f1 303e 1d5b ccbc 8548 db3c 4a40 8a3c
000002d0: e2cd ae3d 3c60 37bd b15c 7cbd 4a3f 21be
000002e0: 7320 3e3d 09b2 95bd cd2d 3dbd cdfe 8b3d
000002f0: 8984 f33d 6374 df3d 693d 95bd 067c 0dbe
00000300: 2bb9 883d 8c18 cebd c7a4 f7bc bec9 7e3d
00000310: 66af d23b f05c 313e 2826 063e 3781 0d3d
00000320: 6852 0e3e 3966 443d f216 bdbc 2e7f 93bd
00000330: 7b7d 2c3d db15 bb3b fa6d 17bc 4eba 3cbd
00000340: d2aa eaba 437b 0f3e 90a2 cf3d 6a3f 62bc
00000350: 5d8b cb3d bd31 773d c231 243e 5b1e 833d
00000360: d92a 283d 133c 49bc 7e17 d3bd e225 ce3d
00000370: 5cb4 663c ab18 f43d 2aec 8abd 9c1b 2c3e
00000380: 41a9 90bd 661c 7abd 6283 dabd 9d3a 993c
00000390: 2ecf e53d a4d7 f6bc 61d2 9bbc f582 e53b
000003a0: 87a5 96bc e9c9 99bc 4ee2 d3bb ab02 babc
000003b0: 8bc4 363e ef3b 80bb 6a5f 2d3d 51f1 8dbc
000003c0: a56c 423e 8750 bc3d 9f05 d13b 5a4f 5fbc
000003d0: 7263 3cbe 73b6 d53d 54eb 293d be6e 93bd
000003e0: 0746 773c 670a e0bd 0b91 58bd 7bec ee3c
000003f0: 43e5 a93d 5be2 8b3d 318a c5bb 9107 253d
0.21855532 0.1171736 0.07347064 -0.065826364 -0.042128116 0.06696431 0.032207426 0.10186742
0.11989812 -0.1612874 0.18854892 0.13203226 -0.047256976 0.013754482 -0.038590502 -0.16357379
0.019879568 0.053326074 0.007880973 -0.056098327 -0.02758869 -0.05924686 0.14405172 -0.0018047428
-0.24769105 0.000913681 -0.0034946208 -0.028143331 0.1698926 -0.011376066 -0.19818975 0.20531777
-0.07479641 0.09960933 -0.14056711 0.100296214 0.041344203 -0.08027321 -0.21268326 0.05641663
0.13636178 0.01068838 0.008423253 0.039342355 0.066536464 0.11011688 0.014859064 -0.058667693
0.14075007 -0.005531289 -0.0014281604 0.19246165 -0.044306815 0.036811214 0.12335454 -0.067496955
-0.052911475 -0.04592728 0.02929051 0.06293209 0.10580922 0.1853417 0.014504198 -0.14549932
0.015947925 0.17404464 0.051847346 0.08409053 -0.033383988 -0.1486067 -0.00091676426 -0.03219289
0.12331381 -0.025113389 0.101540074 0.089469604 -0.010234679 -0.0638268 0.077661574 0.14458476
0.10896352 0.15806058 0.046157703 -0.017125951 -0.023058204 0.0014466301 0.1531743 0.009367257
-0.04525994 0.020174824 -0.01326667 -0.023303326 0.13920626 -0.09551242 -0.10405929 0.18509527
-0.06690349 0.022780972 -0.07388782 0.09788081 0.01770283 0.05310674 -0.05112396 0.0057841
0.006961591 -0.04222597 0.01363033 0.07945714 0.07516919 -0.034152925 -0.011751969 0.038585264
0.04425759 -0.06387244 0.07398035 0.09524033 -0.0449934 0.047487628 -0.08023918 -0.07755668
-0.052295398 0.026024226 -0.09586 -0.029106038 0.0016736283 -0.09971485 -0.100874804 -0.15281759
0.14624226 -0.03986753 -0.043464705 -0.0967814 -0.037631113 0.15112059 0.009399536 0.16017176
0.17906208 -0.05823542 0.11881467 -0.049052153 -0.08076602 0.07191457 0.12090493 -0.11860609
0.055229098 0.18777895 -0.11147008 -0.057018913 -0.1453692 0.105143495 0.16938518 0.16241123
0.047252372 0.041961964 -0.08324184 0.23253152 0.10946305 0.065142 -0.1894858 0.14976205
0.0065754172 -0.13577084 -0.0860661 0.13404387 0.019040694 -0.123620085 0.017762614 0.089349814
-0.054213405 0.01158104 -0.21172363 0.1391444 0.20068023 -0.04518284 0.04151696 0.084934995
0.17279533 -0.02494579 0.026767978 0.016876359 0.08535363 -0.04476951 -0.061611835 -0.15746799
0.046417665 -0.07309348 -0.046186257 0.06835709 0.118905134 0.10910871 -0.07287104 -0.13816842
0.06675943 -0.10063276 -0.03022994 0.062204115 0.0064296005 0.17320609 0.13100493 0.034547057
0.13898623 0.04794905 -0.02308223 -0.07201992 0.042111855 0.0057093925 -0.009242529 -0.04607611
-0.0017903692 0.14011864 0.10138428 -0.013809064 0.09938691 0.06035017 0.16034606 0.06402274
0.041056488 -0.012282389 -0.10307215 0.10065819 0.014081087 0.119187675 -0.06783326 0.16807407
-0.070635326 -0.06106224 -0.106695905 0.018704707 0.11221157 -0.030132122 -0.019021215 0.0070041367
-0.018389476 -0.018773036 -0.0064661866 -0.02270635 0.17848413 -0.0039133946 0.042327322 -0.017326983
0.18986757 0.09195047 0.006378844 -0.013629759 -0.1839731 0.1043519 0.041484192 -0.07198857
0.015092379 -0.10939484 -0.0528727 0.029165497 0.08295681 0.06830283 -0.0060284366 0.04029042

lstm.bias_ih_l0 f4 [256]
00000000: b6e4 b33d 56b0 cc3d 77b3 313e ecff 5b3d
00000010: 52a1 acbd cbc1 a23e 2c8d 663d 17a5 a73b
00000020: 4a38 38bd c80a cc3d 54dd dcbc 5426 fc3d
00000030: 42f7 f13d 801a 5e3e f014 c13d f6d3 08bd
00000040: daed d4bd eb08 5c3c cec7 6c3c 5b78 863d
00000050: 84dd b7bc 4151 823d 1500 2bbd b7d3 8ebc
00000060: 615a 6e3e 25ae 233d 4ab5 883d febc 613e
00000070: 08ba 68bd ab1f 383e 4d35 b33c 86bb 913d
00000080: 67f1 c13d 3cc9 e23c c56b 05bd b0be 4c3d
00000090: ebf0 043d e701 ccbd 146d b83d aaa8 4a3d
000000a0: 0b04 d03d 977a 803d c1c7 693d 4415 763e
000000b0: 6bc2 3e3d 6a96 02be 515b f13b 2dcf 163e
000000c0: 4ca8 a8bd bc2f 9e3d da21 c2bc cf6b cfbd
000000d0: 2c20 68bd e4d4 de3d a34f 7dbd d076 65bd
000000e0: 52d2 f13c 71f6 e43d 4430 afbc 8455 abbd
000000f0: 09b2 0d3d 6ff1 1dbd d56e 1e3e 69cb 73bc
00000100: 750b 9d3d 8847 cfbd 9191 8bbc e271 e6bd
00000110: 9442 8abd 520e 003e cf4e 3dbd 3e95 1e3d
00000120: 10c6 e9bd 62d4 e73d 9b46 103e 9fd4 9dbd
00000130: 9b5a fbbd 9749 003e 5299 90bd 0663 063e
00000140: 86f6 bc3d 9b2f ef3b a9d1 4a3d 1716 9a3d
00000150: 23ca 903d 8352 c03c b674 ca3d ae9c cebd
00000160: ae82 60be c69c 813d c5fa 0c3e f9ab 713c
00000170: b713 f83c cf84 d33c e9d9 863c b0c6 fdbd
00000180: 1657 6ebd 2d59 80bc 12b1 393e 6274 5a3d
00000190: b7ae 453d c1c8 2a3c 4f34 cd3c 8047 ac3d
000001a0: 9794 e0bc 8ad7 1dbc 2fec eabc 405b 993d
000001b0: ee36 a73d 9602 ac3d 0db5 9d3d bd04 8bbd
000001c0: b796 dd3c 3d8e e33d 7951 e43d 01d5 ca3d
000001d0: 47c2 1f3d 947d 3cbd 3ca0 853c c25b 01bc
000001e0: 89a0 573d 59f3 913c 6cc1 933d 0da0 e3bd
000001f0: dbbe c2bc 7e53 edbc aa52 863d 0368 2ebd
00000200: 1a3a 63bc 9b0e 233d 0ec7 043c 0e90 01be
00000210: daec ffbc e269 3b3c f468 153e 349d 1e3d
00000220: 31e0 703d 8381 0fbe 4b1a b93c 1efc 543d
00000230: a84d d43b ff3e 163e 6dda e03d 9af0 313e
00000240: 413a 75bd f511 153c d447 c5bd 732b 5c3d
00000250: e402 1ebd 891d 2ebe 3396 633d fc73 4bbd
00000260: 82d6 393e 6dbf 8fbc 7af3 31be ac9d 193d
00000270: 218a 933c a3d7 b53b 2340 663c bb0f e23d
00000280: 913a d8bc bbab f63d c4eb e8bd 5a09 b03d
00000290: 6fa5 903d bbd5 fb3d 4657 bbbd 4ef5 db3d
000002a0: a497 f23d 43c8 50bc c65f a9bd 637e 513d
000002b0: 610b 9f3d 1a65 b3bd c1c3 db3d 12ee 873d
000002c0: 55e7 543d 7d63 de3d 5c66 093e 96b4 1e3e
000002d0: 1a68 dbbc 5d6b 423d 797e cd3d 1589 e0bb
000002e0: 0edf 87bd 003a 0cbe fa5b dbbd 4ee5 d73d
000002f0: 1764 033e 099b 843d e75b a73b 47d0 b1bd
00000300: 34d4 113c 83ed 343e bcef db3c 02af 8a3d
00000310: 7bba 4dbc d8aa 053e 62ea 11bd 752f 323d
00000320: ee51 e13d 3f2c 81bd 31af 313d 7385 543d
00000330: a724 cc3d e408 9539 671d ff3d bde7 843d
00000340: 4f92 873d d2d5 343d 11b6 f6bc de76 ed3d
00000350: f840 04bd 72c6 37bd d4d5 3dbb 8a16 003e
00000360: 806a 543e e995 19bc c4a1 a4bc cc1a a13c
00000370: 9895 403d d4d6 e13d 4ac2 3fbd ed6a ed3d
00000380: c579 473e 6d8f 0c3e 1d85 d93d e329 99bd
00000390: a7c1 8a3d 6e00 babd 16b3 32bd 956f ef3d
000003a0: fbfb 7a3c 643d 103e cde4 923d 3b32 51bd
000003b0: b672 a4bc bc5b 083d ae40 ed3d 1318 ab3d
000003c0: 8cfb f13d 8178 a1bd 29d9 b43d 4091 973d
000003d0: 368f c13d 119a fd3b ff18 2dbd a4b3 d63d
000003e0: a09f 3cbd 6a3f 0f3e 4548 0a3e 84a3 65bd
000003f0: 7e18 a3bc c11c 7cbc c1a9 f33d 648f 073e
0.087838575 0.09994571 0.17353617 0.053710863 -0.08429207 0.31788477 0.056286976 0.005116116
-0.044975556 0.09962994 -0.026961006 0.12311998 0.11814739 0.21689796 0.09427822 -0.033405267
-0.10396929 0.013429861 0.014451934 0.06565925 -0.022444494 0.06363154 -0.041748125 -0.017434938
0.23276664 0.039961 0.06675203 0.22044751 -0.05681804 0.1798083 0.021876002 0.071158454
0.09469872 0.027683847 -0.03257348 0.04998654 0.03245632 -0.099613 0.0900518 0.049477257
0.10157021 0.06273382 0.057075266 0.2403155 0.04657213 -0.12752691 0.007365622 0.14727469
-0.08235225 0.07723948 -0.023697782 -0.10127985 -0.056671306 0.108804494 -0.061843526 -0.05602151
0.029519234 0.111798175 -0.02138532 -0.0836592 0.034593616 -0.038560327 0.15471967 -0.01488004
0.07668201 -0.101210654 -0.017037185 -0.1125219 -0.0675098 0.12505463 -0.046217736 0.038716547
-0.114147305 0.11319806 0.14089434 -0.0770657 -0.12273141 0.12528072 -0.070604935 0.13123712
0.09226708 0.007299376 0.049516354 0.075237446 0.070698045 0.023476845 0.09885542 -0.10088478
-0.2192485 0.0632873 0.13767536 0.014750474 0.030282838 0.025820164 0.01646133 -0.12391412
-0.05818852 -0.015667522 0.18133953 0.053333648 0.048262324 0.01042384 0.025049357 0.08412075
-0.027414603 -0.009633908 -0.028677074 0.07488108 0.08164774 0.08398931 0.07700548 -0.06788013
0.027049406 0.11111114 0.11148352 0.099039085 0.039003637 -0.046018198 0.016311757 -0.007895412
0.052643333 0.017816233 0.07214627 -0.11114512 -0.023772648 -0.028970476 0.06558736 -0.042579662
-0.013868833 0.03980885 0.008104099 -0.12652609 -0.03124087 0.011438819 0.14590818 0.03872414
0.058807556 -0.14014249 0.022595545 0.05199825 0.006478984 0.14672469 0.109791614 0.17376938
-0.05987001 0.00909852 -0.09632841 0.053752374 -0.038576975 -0.17003454 0.055563163 -0.04967116
0.18148234 -0.017547334 -0.17378035 0.037503883 0.018010201 0.0055493875 0.014053377 0.110381566
-0.026395114 0.12044474 -0.11373094 0.08595534 0.07062804 0.12296625 -0.091475055 0.107401475
0.118453294 -0.012743059 -0.082702205 0.051145922 0.07765842 -0.08759518 0.107306965 0.06637205
0.051978428 0.1085882 0.13417953 0.15498576 -0.026783038 0.04746567 0.10033888 -0.006852279
-0.06634341 -0.13694 -0.107109025 0.10541783 0.1283115 0.06474883 0.005107391 -0.08682304
0.008900691 0.17668729 0.026847713 0.06771661 -0.012556667 0.13053453 -0.035623915 0.04350229
0.11001955 -0.063072674 0.043379966 0.05188508 0.099679284 0.0002842612 0.1245678 0.06489513
0.06619703 0.044149227 -0.030116113 0.11594938 -0.03228852 -0.044866987 -0.0028966563 0.12508598
0.20743752 -0.00937412 -0.020096667 0.019666098 0.047017664 0.11027303 -0.046816148 0.1159266
0.19480045 0.13726588 0.106210925 -0.074786924 0.067752175 -0.09082113 -0.04362782 0.116912045
0.015318866 0.14085919 0.071725465 -0.051073294 -0.02007423 0.03329061 0.11584602 0.08354201
0.11815557 -0.078843124 0.088304825 0.07400751 0.094511434 0.0077393134 -0.042260166 0.104834825
-0.046050668 0.13989034 0.13504131 -0.056064144 -0.01990914 -0.015387715 0.11897612 0.13238293

lstm.bias_hh_l0 f4 [256]
00000000: 8045 5bbd 5b63 72bc df0a 083e 2877 bd3d
00000010: 6306 3fbd 5138 3a3e a6fd 4f3d 81af ce3b
00000020: a40d a0bd 89c7 d9bc 900b 4d3d 641d 403c
00000030: 3022 4b3d bb99 b03d 8cd5 a83a 429d 0bbd
00000040: 8175 e93d 04c2 833d 435c b23c 3396 8a3b
00000050: 7cb5 18bc 2c72 1e3e 2b6b 31bd 0320 d83c
00000060: 9592 523e 90a3 8fbc 25b9 e73d 5201 823e
00000070: 040b 163e 08c8 c23d dfd6 303d 5471 053d
00000080: 0354 203e 2d67 3b3d b8ee d4bb 1609 253e
00000090: 5023 af3d 1700 bcbc ef06 cdbd 8448 bb3d
000000a0: bdcd 093e b4ff 273e 5d11 7d3a 58c8 3f3e
000000b0: 3673 afbc 914d 0c3a 176e f63d e9b7 53bd
000000c0: 08f8 d93d 8a1d b4bd 5ae2 9b3d 0396 a9bd
000000d0: c6b2 64bc 14f9 cf3d a356 73bc 76e9 ec3d
000000e0: 3268 403d 889f 81bd 472f e93d fc8d cc3d
000000f0: eead 9f3d 5012 61b9 badf 8b3d 43ad 47bc
00000100: 48e7 85bd a295 613d 5f7f 12bd 2bf2 523d
00000110: 2bb1 c1bd 751a abbc 679c 4abd 0472 ec3c
00000120: babe 25bd f296 8b3d a7bf 0d3e 63f2 19bd
00000130: 3cea 48be 565d 6a3d 5643 5abd 84f5 3cbd
00000140: a2f1 283d 3ebf 653d 0429 e53d c57f 56bd
00000150: 62e9 c73d 78a7 183e c3e2 06bd 7e17 c9bd
00000160: f51b 57bc d52c b13d 1f47 133e 6df4 123d
00000170: 85e9 9cbd 58ac aa3d 8c92 b1bd 6ca3 3e3d
00000180: a365 e1bd 37ab 47bc 4f1c 013e 3a6a 873d
00000190: 6099 b3bd 7a8c 7c3d 3f27 8dbd 7e84 9dbd
000001a0: c5ce 39bd 2886 c4b9 65f2 e83c 8652 85bd
000001b0: 119f 9cbc c45c 9a3d 686f 063d 67c7 c23d
000001c0: f5c2 7dbd ccc2 063e d37e 023e 854f ccbd
000001d0: 6b8e 18bd b08d cb3d b0de e83d 761f b1bc
000001e0: 276d 81bd d87d b83d b4e5 eb3d fe19 0dbd
000001f0: 212c b43d 803b 47bd ce21 c63d 796c e8bd
00000200: adef e93d dffd a33d aa5f 223e 760e dd3c
00000210: 7bf7 81bd a2cb 5abd 1768 7fbb 722b d43c
00000220: f67b 9a3d 0ded 033c ff23 ed3c 06b5 9a3d
00000230: 2028 9e3c 7afd d53d 790a 023e 1780 3fbd
00000240: 4822 923d 2701 d23d 221e c13d 688c e33d
00000250: 3448 71bd edd7 febd a7b2 c83c 49b1 c63c
00000260: 92f8 a1bc 229a 0cbd 80b0 14be e7ba 923c
00000270: 50c4 1f3e 6d21 00be f100 05be fb2d 083d
00000280: 9c5c a23d 5ff0 d03d 0ef7 c7bd c2d6 90bd
00000290: 7780 023e 6e01 23bd e716 23be d674 9f3d
000002a0: f137 6a3d 079f 5dbd 3ac8 963d 7f46 e5bc
000002b0: d608 ef3d 7423 9d3c 7760 323d 199e 1f3e
000002c0: e5bd 053d 465d 273d 6753 563d b332 2ebd
000002d0: b03c 08be 0af3 ea3d 5f36 ef3d 2db7 08be
000002e0: 2e59 a4bd 59ed d8bd c087 153d e364 35bc
000002f0: a06a bb3d 0c53 173e 5e19 01bc 8bda 4bbd
00000300: cbcc 463d 7549 ae3d 16dd a7bc d46b 103c
00000310: 9b4a 293b a623 103e afbe e93c 0e42 f53d
00000320: ffeb 743c 5d9c 983c 638c a73d fde8 e73c
00000330: 1952 3a3e 4eeb b53c 1ccb 1f3e 4b51 213d
00000340: 3314 d4bd e212 673c 4343 6c3d 0557 2fbc
00000350: b6f9 8dbd 3488 25b8 92da 94bb e464 ac3d
00000360: b485 5f3e 3097 c8bd d763 b4bd 1329 df3d
00000370: 15c6 d83d bba6 013e 2f13 233e b4d9 86bd
00000380: eb00 4a3b a7c3 513d 7ebd 5b39 a946 3cbd
00000390: 87c4 fdbd 6c1f 9b3d 4e13 2e3d 4501 b93d
000003a0: 166b 5d3c 6e32 863e 144f a43c e757 0dbd
000003b0: 1ba2 8ebd 6d51 d8bd 2326 133e ccfa 8cbb
000003c0: 625b 0c3e 0f13 aebd c6c8 073e a89d 7abd
000003d0: 4bed 053e afd2 9fbd 988d 9f3d a9eb d53b
000003e0: abbc e93d 37b2 2f3e 30a7 dc3c 05a1 ae3d
000003f0: b59e a43d d309 0bbc 3f40 14bd efbc f63d
-0.053533077 -0.014794196 0.13285397 0.09251243 -0.04663695 0.18185546 0.050779007 0.006307543
-0.07815102 -0.026584404 0.050059855 0.011725757 0.04959315 0.08623072 0.0012881025 -0.03408552
0.11399365 0.0643349 0.02177251 0.004229331 -0.009320613 0.1547324 -0.043315094 0.026382452
0.20563729 -0.017534047 0.113146104 0.25391632 0.1465264 0.09510809 0.043173667 0.03257878
0.15657048 0.045752693 -0.006498184 0.16116747 0.08551657 -0.022949262 -0.10011088 0.09144691
0.13457389 0.16406137 0.00096537714 0.18728769 -0.021417242 0.00053521345 0.12032717 -0.051689062
0.10643011 -0.08794697 0.076115325 -0.082805656 -0.0139586385 0.1015493 -0.014852199 0.11567967
0.04697437 -0.06329256 0.113859706 0.09988019 0.07796846 -0.00021464494 0.06829782 -0.012187305
-0.06538254 0.05507434 -0.035766 0.05150048 -0.0945762 -0.02088664 -0.049465563 0.02886296
-0.040465094 0.068159 0.13842641 -0.037584674 -0.19620603 0.05721792 -0.053286873 -0.04613258
0.041246064 0.056090586 0.11189464 -0.052367944 0.09761311 0.14907634 -0.0329311 -0.09818934
-0.013129224 0.08651129 0.143826 0.035877634 -0.07661728 0.08333653 -0.0867053 0.04654257
-0.11005714 -0.012186817 0.12608455 0.06612058 -0.08769488 0.061657406 -0.06892251 -0.076912865
-0.045363206 -0.00037483987 0.028435895 -0.06509881 -0.019118818 0.07537225 0.03282109 0.09510689
-0.061953504 0.13160247 0.12743692 -0.09976105 -0.037245195 0.09939134 0.11370599 -0.021621447
-0.06319647 0.09008378 0.11518422 -0.034448616 0.087974794 -0.048640728 0.096744165 -0.113488145
0.11422668 0.080074064 0.15856805 0.026984435 -0.06346031 -0.053416856 -0.0038971954 0.025899623
0.07543175 0.008052123 0.028947828 0.07554059 0.019306242 0.104487374 0.12699308 -0.046753015
0.07135445 0.10254126 0.094295755 0.11110765 -0.05890675 -0.12443528 0.02449925 0.024254458
-0.019771848 -0.03432668 -0.14520454 0.017911388 0.15602231 -0.12512751 -0.1298864 0.033246975
0.0792782 0.10202097 -0.09763919 -0.07072212 0.12744318 -0.039796285 -0.15926705 0.077859566
0.057182256 -0.05410674 0.07362409 -0.027987717 0.11671607 0.019181944 0.043549027 0.15587653
0.0326518 0.040860437 0.052325632 -0.04252882 -0.133044 0.11472137 0.11680292 -0.13351126
-0.08024822 -0.105921455 0.036506414 -0.011071417 0.091511965 0.14777774 -0.007879583 -0.049768966
0.04853515 0.085101046 -0.020491164 0.008814771 0.0025831822 0.14076099 0.028533308 0.119754896
0.014948844 0.018629247 0.081810735 0.02830934 0.1819538 0.022206929 0.15604824 0.039384168
-0.10355415 0.014103623 0.057681333 -0.010701899 -0.06932394 -3.9465915e-05 -0.004542657 0.08417681
0.21828347 -0.09794462 -0.088081054 0.10896506 0.10584656 0.12661259 0.15925287 -0.06584492
0.00308233 0.05121198 0.00020956059 -0.045965824 -0.12391 0.075743526 0.04249888 0.09033445
0.013514301 0.2621035 0.020057239 -0.03450766 -0.06964513 -0.10562406 0.14370017 -0.0043023583
0.13706735 -0.08499729 0.13260183 -0.06118551 0.13078801 -0.078038566 0.07790679 0.006528337
0.11412939 0.17157827 0.02693519 0.08526806 0.080380835 -0.008486229 -0.036194082 0.12047755

lstm.weight_ih_l1 f4 [256, 64]
00000000: cca2 66bd 92f1 003e fe0b cfbd ee31 5ebd
00000010: 99d4 343e daca df3d 6016 b7bc 7de7 a93d
00000020: 1241 953b c359 91bd 7d07 133e c137 973d
00000030: 0624 aa3d 4843 ebbd 40a1 393e 2ccd a73c
00000040: 2dac 17be 8dec 573b eb21 b33d 745c 053a
00000050: d2dd 6abd ccc9 053d 83df 513e 82c1 5c3c
00000060: 3a87 4c3e 59a2 2c3e 6148 54be aba7 603d
00000070: 9658 f73d b086 363d 90d8 8e3d aed8 a0bd
00000080: b060 c93d a574 c33c c720 a0bd 68bb cbbd
00000090: 922b ff3c 7f44 c93c 7c57 c0bc b6d9 003e
000000a0: 2318 10be 0725 123e ce15 933c 000c 353e
000000b0: 0c2c fcbc 7f79 fa3d 6e7b 673d 1037 1e3c
000000c0: 3ed3 ec3d a93c 1fbe 275f 983d ce3b 483d
000000d0: 428c 2fbe 1efa d0bd f4b8 543d b9e9 abbc
000000e0: 8652 c8bc 9218 8ebd 446d 2a3e 5d36 bb3d
000000f0: 3447 e13d 5760 773d f9cf 083d 97aa d3bc
00000100: 4ad3 62bb 8c49 b13d 8311 543d 524c 733d
00000110: 29b2 05be 1241 0a3e 581f 13bc 3dee 1ebc
00000120: 9e92 c6bb 9a87 d4bc f34d a03c af3f a4bd
00000130: d0e0 45be ccb0 293e d27e 12be 874a 943e
00000140: 471d e1bd 6e59 253e c6e9 fa3c be70 c03d
00000150: 3990 f43c 4632 8dbd 2d0e 783d 6b12 b13d
00000160: 2b10 eabe 85ac c2bd 5edb dbbc 0045 163d
00000170: e428 793e 00ed 8ebd 0c5d 36bd fff5 08be
00000180: 35c4 403b 137e a8bd e05e 61be cbd4 28bc
00000190: 3d5f cb3d c53d c73d d220 b2bd 3733 1b3e
000001a0: 74a8 213e f0b2 9c3d 17a9 dc3c 6dda df3d
000001b0: bee3 73bd 7770 f03d 5a40 92bd 06bc 6b3e
000001c0: a1e3 d23d 09b9 a4bc 8117 31bd cfdc 243e
000001d0: fd3d 05bd 2cbb ecbc cbbe 64bd f274 59bd
000001e0: 95a9 05be f8d8 8f3d 5e77 053e 270e 163e
000001f0: 9929 353c 94db 0e3e f216 993d ccb3 18be
00000200: 5c85 4ebd b779 4b3d 3d6d 00be 7d5f f0bc
00000210: 21fd f33d f4f8 ef3d 08ce a93d 1b0b a1bc
00000220: e496 b93d 5b6d 13bd 3efe a43d b365 aa3d
00000230: 0773 55bc 4567 cb3d 1db0 b13d 3086 0b3e
00000240: 6a00 8a3c a606 553d 6dfc 02be e177 50bc
00000250: 0f62 afbd b51a 193d 2c2c 0f3d fd72 3c3d
00000260: b9b1 dc3d beea d03d a73b 2fbe 5869 f9bd
00000270: cf9e 1b3d 77a1 75bd 8229 243e 7ef0 3ebd
00000280: f87d c1bd 85cc 1f3e efcd 93bd c23f 9e3b
00000290: c9a1 273e 1859 8cbc e5d9 f8bd 93c2 303d
000002a0: 7354 6c3d 4134 5bbc 5d38 11be d74d cc3d
000002b0: 0c3c 0b3e 087b 333e 9820 4bbd 9ab4 423d
000002c0: 81a1 c63c 0fc4 85bd 5e11 753a 31da 94bd
000002d0: 37f6 b4bd 6c38 bcbd 8f1a ad3c 342a 34bd
000002e0: aa8e 0bbe 1db7 6bbd be16 ed3d 2143 b73b
000002f0: 9b22 2f3d f7aa bebd 836d 68bd aee1 babd
00000300: 9e17 71bd 2a86 6e3d 3099 81bd a612 a33c
00000310: 5695 c3bd b871 cebc e0ef 99bd 00c5 9ebd
00000320: 9f3c 7a3d c80a a7bd 963a b43d 4957 50bd
00000330: 5b9c 3fbe edb4 f7bc e3c8 463d 5b9b d43c
00000340: db1b 8bbd 08b1 05bd 9079 71bd faa8 8abb
00000350: d11e f9bc 6506 e4bd 8ede 693d 4c2f 023e
00000360: aead bcbe 4b4b 823d b8f8 b7bd 2768 a53c
00000370: 60ca 4e3d 7aeb 42be 4ed1 acbd 17a2 3ebc
00000380: 6d86 803d df74 503d c53a fcbd 2729 e13d
00000390: 5310 4ebd 0f84 48bd 7064 61bd 01ee e43d
000003a0: fd10 a5bd 9b36 dcbc 00c0 db3d 9782 293e
000003b0: beba 023e a93e a83d 8e77 953c a812 bb3c
000003c0: efd3 2bbe c081 3cbb e7a7 4fbd 58d3 c23d
000003d0: 9721 65bd 6e40 fabc b11c 863d 4c37 fbbd
000003e0: 1ec1 87bd 9ae8 51bc b9cb 9ebd 2fe9 84bd
000003f0: b68b 9fbc 291a 193e e921 88bd dbe8 ec3d
-0.0563076 0.12592152 -0.10109709 -0.054246835 0.17659225 0.10927363 -0.022349536 0.08296106
0.004554876 -0.07097199 0.14358325 0.07383681 0.08307652 -0.11487442 0.18127918 0.020483576
-0.14811774 0.0032947392 0.08746704 0.0005087324 -0.05734045 0.03266315 0.20495419 0.01347387
0.1997346 0.16858806 -0.20730735 0.0548474 0.12077443 0.04456204 0.069749 -0.07853828
0.09832895 0.023859331 -0.07818752 -0.09947854 0.031148706 0.024568794 -0.023479216 0.1258305
-0.14071707 0.14271937 0.017954733 0.17680359 -0.030782722 0.12230205 0.056514196 0.009656683
0.11563729 -0.15550484 0.07440024 0.04888516 -0.17143348 -0.10203956 0.051934198 -0.020985471
-0.024453413 -0.0693828 0.16643244 0.09141228 0.10999909 0.06039461 0.033401463 -0.02583818
-0.0034610801 0.08656606 0.051774513 0.059398957 -0.13056244 0.13501385 -0.008979641 -0.009700355
-0.0060599586 -0.025943566 0.01956842 -0.08019959 -0.1932404 0.16571349 -0.1430619 0.2896311
-0.10991912 0.16147396 0.03062905 0.09396504 0.029853927 -0.068943545 0.060560394 0.08646091
-0.4571546 -0.09505562 -0.026838 0.036686897 0.24332005 -0.06978798 -0.04452233 -0.1337509
0.0029413824 -0.08227172 -0.22008848 -0.01030464 0.09930275 0.097285785 -0.08697666 0.15156256
0.15786916 0.07651317 0.026936097 0.10930333 -0.059543364 0.11740201 -0.0714118 0.23020944
0.10297323 -0.020107763 -0.043235306 0.16099857 -0.03252982 -0.028897844 -0.055846017 -0.053090043
-0.13052972 0.070238054 0.13033816 0.14653836 0.011057281 0.1395095 0.074750796 -0.14912337
-0.05042015 0.049676623 -0.12541671 -0.029342407 0.11913515 0.11717406 0.082912505 -0.019658616
0.09061983 -0.03599296 0.08056305 0.08320179 -0.013027913 0.099318065 0.08676169 0.13625407
0.0168459 0.052008294 -0.12791605 -0.012723894 -0.08563625 0.037378985 0.034954235 0.0460081
0.107760854 0.102010235 -0.171126 -0.12178296 0.03799325 -0.059968438 0.16031459 -0.04661607
-0.09447855 0.15605362 -0.07217013 0.004829378 0.1637031 -0.017132327 -0.12150935 0.04315431
0.057697725 -0.0133791575 -0.14181657 0.09975784 0.13597125 0.17527401 -0.04959163 0.047535516
0.024246933 -0.06531536 0.0009348596 -0.07268179 -0.08836024 -0.09190449 0.021130828 -0.04398556
-0.13628641 -0.057547677 0.11576603 0.005592719 0.04275761 -0.09309953 -0.056745064 -0.09125076
-0.058860414 0.058233418 -0.06328046 0.019906353 -0.09549968 -0.02520071 -0.07516456 -0.077524185
0.06109297 -0.08156353 0.08800237 -0.05086449 -0.18711989 -0.03023764 0.048531424 0.025952986
-0.067924224 -0.032639533 -0.05895382 -0.0042315694 -0.030410202 -0.11134032 0.05709701 0.12713355
-0.36851257 0.06362017 -0.08982986 0.020191265 0.05048597 -0.1903514 -0.08438359 -0.011635325
0.0627564 0.050892707 -0.12315897 0.10994177 -0.050308537 -0.048954066 -0.055027425 0.11178208
-0.08059881 -0.026881507 0.107299805 0.16553722 0.12766549 0.082150765 0.018245485 0.022836044
-0.16780065 -0.002876386 -0.050697234 0.09512967 -0.055940237 -0.0305483 0.06548441 -0.122664064
-0.06628631 -0.012811804 -0.07753701 -0.06489789 -0.019475799 0.14951386 -0.06647093 0.11567851

lstm.weight_hh_l1 f4 [256, 64]
00000000: 61fd 9d3d 9639 96bd 24e2 113d 132f 4ebc
00000010: 959d cc3b ec86 e8bd 4b78 9cbd afce 87bd
00000020: ffa1 4f3e f69c 463b 05df e2bc bc5c debd
00000030: 847f 3abe b7ec cbbd aec5 833d 032b d13d
00000040: 03f8 fabd afe2 583d f3f6 3abe dfb6 f93c
00000050: 2ae8 efbd 65ca 93bd f5e4 24be 70e4 9b3d
00000060: a1fa 0c3e 89e5 a63d 2d1a 0ebe d94c e4bd
00000070: b312 a73d f304 e23d e1a9 38bd e102 32be
00000080: 59ca a7bc afa5 48bd 012e 8f3d cc2d 9d3c
00000090: 5c05 47bd 12af 433e faa4 b43d 96ee cdbb
000000a0: c997 8d3d 3861 843d 0a2b 10be 6cbe ec3d
000000b0: 0929 803e 0bf0 df3b a4ec 6a3d afb7 f63a
000000c0: b8d1 4d3d e557 bebd 27e7 8e3d 10fb 4bbd
000000d0: 3ce9 a8bc 516c f83d c5fc 2abe 0c07 ba3d
000000e0: 6694 103e 7ab7 24be 2b8e 1dbe 0281 033c
000000f0: 8192 eb3d affc 19bd d1ef 233d 5bc6 9e3e
00000100: 215e 773e 80f9 0dbe a009 c63d f4b6 243d
00000110: 3d2b e23d f9d6 b9bd 8f97 f7bd 4814 813d
00000120: ab6b 413c 6d23 f5bd 0c4a 14be 717a 1bbe
00000130: cb8a 743d ca3d 3f3e 0a2f 793c d493 2e3e
00000140: c56f 59be d9b4 95bc 4580 9b3d 6c25 a4bc
00000150: 25f4 c5bd 49b8 e2ba 7b43 2dbe 8e73 ae3d
00000160: de46 e2bd da88 4b3d 8b62 cfbd 32a0 c4bd
00000170: 9d6a 0fbd 9bdd 083e 55fd f93d 9ab4 b43d
00000180: 3217 b6bd 5a52 00be e194 143c c5bc d93d
00000190: 4621 7dbc b515 e63d 75d9 173e 9087 2e3e
000001a0: 51f7 aa3d ef11 463e bf2a 2dbe c6b0 1a3e
000001b0: f323 943d 8f98 efbd 8670 813e 854c 0dbd
000001c0: 2663 4cbe 6b35 8d3c 06d5 083d 809c 47be
000001d0: d017 d8bc df32 22be 342e 79bd 7b28 033e
000001e0: be78 1c3c e4b6 59be 180a 18bd acb7 9a3d
000001f0: 9627 bdbd 0e69 c5ba 3f1a 06be 9268 87be
00000200: 0c28 f23d db01 1abe c42c 133d 94fd b63d
00000210: 8bca 803d dff9 cdbd 1141 173d 5c9e c2bc
00000220: 6c26 953c 5c07 79bc 0598 d0bd bb1c 3fbd
00000230: ede3 4bbe 4ec1 92bd 0c42 ba3d 8355 e23b
00000240: 0cbf c2bd 961f 573e 88a0 4cbe 513a 7e3d
00000250: 39b8 b9bc 3edf 07bd 2a4b 94bd b480 fabd
00000260: 5782 0b3e fd86 163e 33ca dabc d037 0bbe
00000270: 26db ea3c 300a 9d3d a289 813d 6f5f f7bd
00000280: 61f1 52be 2fdc 123d 433e 803d 14ea 403e
00000290: ace0 bcbd 5487 9d3c d5d1 6d3e 4280 f6bd
000002a0: dc4b 843c 6e32 c93d 4ac4 1dbd b36b 843d
000002b0: ba45 fe3d 7dca 003e 02a8 90bd 011b 0f3b
000002c0: fe45 61bb 5c0c 6dbd 3111 0f3e b801 7a3c
000002d0: 3c21 bfbd d8a7 c03c d1fa 9abd ed03 ab3d
000002e0: 74d4 9b3d 0200 c9bd 6177 123d c1a4 94bc
000002f0: 5f01 d93d 8fd6 613d 6c45 bfbd 35fa be3e
00000300: 7684 cb3d 6744 1d38 ca33 163e a9a1 a4bd
00000310: b402 fb3d 7007 bc3c e6f6 edbd 7788 45bd
00000320: 9681 a7bc 31a9 1dbe b55f fd3d d069 6abd
00000330: eec5 003e 53d1 84bd 8820 223d 49ea 343c
00000340: 1237 24be 028c 973d 089d 123e e06b c33b
00000350: 2cbe c63d b620 a23d 77c7 673d 7f76 9c3d
00000360: ef60 abbd 75f9 453d 7877 a1bd 9def 7d3d
00000370: 4f0f f5bd 97fc f93d 2d9e 243c df1d a23c
00000380: 8f0b 653d 0414 8f3d cfdd 4e3c 2c8d 60bc
00000390: bc30 cabd df0b 30bd 0cd2 c4bd f3a1 29bc
000003a0: ffc9 163e d9a8 b6bd 9cb6 f93c 8c3d da3d
000003b0: d0e4 993d bc0e 843c 6e32 54bb df2b 0abe
000003c0: f0c8 2cbe ee38 063e 720c a7bd 392b 00be
000003d0: 1715 a03b 232f 01be d822 d8bd 7627 ee3d
000003e0: 7bc0 87bd 7f05 c9bd 4719 9fbb 0203 92bc
000003f0: aeea 07be 26df e53d f2bc a3bd 05f1 a9be
0.07714344 -0.073352024 0.035616055 -0.012584466 0.006244371 -0.11353859 -0.076401316 -0.06631219
0.2027664 0.0030305958 -0.027694235 -0.108575314 -0.18212706 -0.09957259 0.06434189 0.10213282
-0.12254336 0.052950557 -0.18258266 0.030482708 -0.11714204 -0.07216338 -0.16102965 0.0761193
0.13767482 0.08149249 -0.13877173 -0.1114747 0.081578635 0.110361 -0.045083884 -0.1738391
-0.02048223 -0.048986133 0.069911964 0.019186877 -0.048589095 0.19109753 0.08820529 -0.006284545
0.06913716 0.064638555 -0.14078918 0.115597576 0.25031307 0.0068340353 0.057354584 0.0018823053
0.05024883 -0.09294108 0.069776826 -0.04979998 -0.020619027 0.12130035 -0.16697986 0.09083375
0.1411911 -0.16085616 -0.15386264 0.008026363 0.11502553 -0.037594493 0.04002363 0.31010708
0.24157001 -0.13864708 0.096698046 0.04021354 0.11043403 -0.09074206 -0.120894544 0.063026965
0.011805455 -0.119696476 -0.14481372 -0.15183426 0.059702676 0.18675914 0.015208969 0.1704858
-0.21234043 -0.018274711 0.07592825 -0.020037375 -0.096657075 -0.0017297353 -0.16920273 0.08518134
-0.11048673 0.04969106 -0.101262175 -0.09600867 -0.035013784 0.13365786 0.122065224 0.088235095
-0.08891143 -0.12531415 0.009068699 0.10631708 -0.015449828 0.11234609 0.14829047 0.170439
0.08347953 0.19342779 -0.16910838 0.15106496 0.07233419 -0.1169902 0.2528116 -0.034496803
-0.19959697 0.017237386 0.03340628 -0.19493294 -0.026378542 -0.15839718 -0.06083508 0.12808411
0.009550272 -0.21261173 -0.037119 0.07554564 -0.09236066 -0.0015061216 -0.1309595 -0.26446968
0.118240446 -0.1503977 0.035931364 0.08935085 0.06288632 -0.10057425 0.036927287 -0.023757152
0.018206798 -0.0151995085 -0.101852454 -0.04665826 -0.19911166 -0.07165776 0.09094629 0.0069071664
-0.095090955 0.21008143 -0.19983113 0.062067334 -0.022670852 -0.033171885 -0.07240899 -0.122315794
0.1362394 0.14699931 -0.026707744 -0.1359551 0.028668951 0.07667959 0.063250795 -0.120787494
-0.20599891 0.035854515 0.062618755 0.18839294 -0.0922254 0.019229569 0.23224576 -0.12036182
0.016149454 0.09824072 -0.038517274 0.064658545 0.12415643 0.12577243 -0.07063295 0.0021836164
-0.0034373994 -0.057873115 0.13971402 0.015259199 -0.09332511 0.023517534 -0.07567371 0.08350358
0.076088816 -0.098144546 0.03575838 -0.018144967 0.10595965 0.05513626 -0.09339413 0.37300268
0.09937374 3.749542e-05 0.14668193 -0.08038647 0.12256375 0.022952765 -0.11619358 -0.048225846
-0.020447534 -0.15396573 0.1237177 -0.057229817 0.12575504 -0.06485238 0.039581805 0.011042186
-0.16036633 0.07399751 0.14317715 0.0059637874 0.09704241 0.07916395 0.05658671 0.07639789
-0.08368098 0.048333604 -0.07884115 0.06199609 -0.119658105 0.12206381 0.010047478 0.019789634
0.055919226 0.069862396 0.0126261255 -0.013705533 -0.098725766 -0.04298007 -0.09610376 -0.010353553
0.14725493 -0.08918924 0.030482583 0.106562704 0.07514346 0.016120307 -0.0032378691 -0.13493298
-0.16873527 0.13107654 -0.08156671 -0.12516488 0.0048853266 -0.12615637 -0.10553521 0.1162862
-0.066285096 -0.098155014 -0.004855308 -0.0178237 -0.13273117 0.11224203 -0.07995023 -0.33191696

lstm.bias_ih_l1 f4 [256]
00000000: f242 ef3d b045 343e f768 823d 875b 69bc
00000010: f672 ddbc 6bf2 063d fe52 0a3d 07b4 173e
00000020: 01d3 873d 5904 3a3e 6d14 b13d 2a0b 1f3d
00000030: 2343 5d3e 6dda 91bd 17f4 6abd 34aa 333e
00000040: 7f95 053e c76e 043d 3922 c1bd 26a2 703e
00000050: d25c 973c fed3 253e 028a 063e 3e52 2a3e
00000060: 4e48 733e c08b 123e 936b 263d 50aa db3d
00000070: 984a 823c 2c86 e43b e2c1 173e a074 313e
00000080: 9b32 013d 454b 1b3d e698 213e 134b 033d
00000090: d45b 173d f35a 043e 642b 8a3e 16da 51bc
000000a0: 143a 153e e7df 3a3e 3abd 39bd 9c06 9b3b
000000b0: 1dc1 cb3d af15 0e3e 07a4 3e3e 102a 4b3e
000000c0: f4cc 183e c55c 243c 9e9d d73d 80b3 423e
000000d0: 8a61 3d3e 6345 0f3e bccb ae3c 97a6 953d
000000e0: 8721 0e3e 5a90 61bd eb17 a0bd 3ecb 1f3e
000000f0: 8df7 703e 9a08 963d faf3 02bd 11b7 b63d
00000100: a522 06bd 53b8 883d bcc0 29bd 89e5 bdbd
00000110: 740c 5ebd 99ec 933d b949 40bd 5c46 91bc
00000120: f119 08be 7336 4bbe b532 a1bc 8b8a 0c3e
00000130: f219 f6bd e70c cc3d 9ffc 033e 7ee3 4a3d
00000140: 83f0 f73d 127d 99bc 8382 c4bd bde8 36be
00000150: 52a0 a03b ccc7 f3bd 2e23 b13d 49a6 13bd
00000160: 1a0a 683d a045 993d 28b5 893b 14ef 44bd
00000170: 833c 60bc 733e aebd 68e4 c0bd a0cb d9bd
00000180: 8b23 adbd fa75 e43d 39ba f3bd 3c74 a0bd
00000190: 8655 083e d486 9a3d 8a46 01bd 28f4 f33c
000001a0: b155 8b3c 9217 593d eef2 ab3c 5bfb acbd
000001b0: 6287 fa3c 5f45 9ebd db22 353e 2bc2 913d
000001c0: 9936 5ebc 244a 8dbd 5657 be3d 41a7 653c
000001d0: 8547 12be 97d2 d0bd 1a0f 4ebd 325b 53bd
000001e0: ebf5 4e3d ed51 38bc 18e3 dabd 06a5 33be
000001f0: 5475 07be b490 a4bd 27f5 9fbd 374c 86be
00000200: 44c0 933d 4652 973d 9f05 bcbc 9e9a d1bd
00000210: 9497 1d3d 310a cbbd d024 033c 9841 c73d
00000220: a257 35bd bfb3 9bbc 32aa be3c a228 3abd
00000230: 1def b7bd 4b05 163e 16ba 793d 9a39 b13d
00000240: 2b6b 2cbe 50c0 c93d c1a3 babd 9fb0 fc3d
00000250: 9d65 41bd 25c1 6b3d 3511 49be bbcc 73bd
00000260: aba4 03bd dfcb 103e ff75 14bd 6eb2 afbd
00000270: dc34 20bd 54ed e13d 7a3e 533d 42c0 b7bd
00000280: 3a85 ba3d b773 1ebe a3cc b73d 56ef 933d
00000290: 6c59 1abe ab8a 093e df80 c53d e041 943c
000002a0: 03dd c53d 9e22 fd3d 73e3 06be 40a1 0d3e
000002b0: 486a 2c3e ad1e f3bd 6f0f 283e 12a8 8cbd
000002c0: 7a50 bcbd ef20 053e f977 32bd c919 f8bd
000002d0: 7b2c 323c d641 eabd 5178 33be 6f78 02bd
000002e0: 6241 c53d 9c31 96bc 88e3 cfbd 7298 66bd
000002f0: 7c06 ad3d 594d 163e 7f16 a1bb 2682 753c
00000300: 9d92 153e 2181 373e a598 71bd 4985 61bb
00000310: 566d d03d 5e94 903d 895e c4bd f862 efbc
00000320: 6ae3 463d 57bd 223e c2c1 22bd 10df 0c3e
00000330: 6eb3 553d e6d2 2b3e 3163 34bd d1ff a23d
00000340: 7ffa 47bd 86e2 233e b7cf 26bd b8e5 d53d
00000350: 8da5 0d3d 328a 55bb a791 133e 6f31 093e
00000360: cd53 623e f6b6 273e 38ce bb3d c697 d93d
00000370: b1ec e0bc e57a 99bd 61b8 a03d 49dc 183e
00000380: 7f6c 383e 08bd e4ba a3eb 80bc c950 163e
00000390: abe6 243d a224 e63d fa8b 2a3e 6afa f13d
000003a0: 49b8 373e ed40 5f3e dd95 de3c 812e 87bb
000003b0: 5f16 2cbc 06b7 293d ef09 8dbd 51ce 9a3d
000003c0: 475e 033e 5511 b2bb 5190 67bd 0acc 3f3e
000003d0: d1ed 1d3e 9aee f6bc 1ec5 cf3d 698a 5abd
000003e0: 6d3e 163e 50cf cb3c 2bb7 6c3c d26c 8a3e
000003f0: a0d6 423d 7649 96bd d488 fe3d f1f8 c43d
0.11682691 0.17604709 0.06367677 -0.014243013 -0.027032357 0.03294603 0.033770554 0.14814769
0.06632043 0.18165721 0.08646474 0.038829006 0.21607642 -0.071217395 -0.05736169 0.17545396
0.1304531 0.032332208 -0.094303556 0.23499355 0.018476877 0.1619415 0.13138583 0.16632935
0.23758051 0.14311123 0.040629935 0.10725844 0.01590471 0.0069740023 0.14820054 0.17329645
0.0315424 0.03791358 0.15780982 0.03205402 0.03695281 0.1292532 0.2698623 -0.012808343
0.14572936 0.18249474 -0.045346476 0.0047310125 0.09948943 0.13875459 0.18617259 0.19840264
0.14921933 0.010031884 0.1052811 0.19013786 0.1849424 0.13991313 0.021337382 0.07307165
0.13879977 -0.055069305 -0.07817062 0.15604874 0.23531933 0.07325859 -0.031970955 0.08921636
-0.032747883 0.06675782 -0.04144357 -0.09272296 -0.054211095 0.07222862 -0.046945307 -0.017733745
-0.13291146 -0.1984499 -0.0196775 0.13724725 -0.120166674 0.099633984 0.12889336 0.04953336
0.12106421 -0.018736396 -0.09595206 -0.1786222 0.004901924 -0.119033426 0.08649288 -0.036047254
0.05665026 0.07483983 0.0042025037 -0.048079565 -0.013686302 -0.08508005 -0.09418565 -0.106345415
-0.08454045 0.11155315 -0.119007535 -0.0783467 0.13313875 0.07545248 -0.031561412 0.029779509
0.017008634 0.053000994 0.020989861 -0.0844638 0.030582134 -0.07728075 0.17689078 0.07117113
-0.013562822 -0.06898907 0.09294002 0.014016927 -0.14285095 -0.10196417 -0.05030737 -0.051600643
0.050527494 -0.011250001 -0.10687846 -0.1754342 -0.13228351 -0.080354124 -0.07810431 -0.26230022
0.07214406 0.07388739 -0.0229519 -0.10234569 0.038474634 -0.09914053 0.008004382 0.09729308
-0.044273026 -0.019006608 0.023274515 -0.045448907 -0.08981154 0.14650457 0.06096848 0.08653565
-0.16837756 0.09851134 -0.09113265 0.12338375 -0.047216047 0.057557244 -0.1963547 -0.059521418
-0.03213946 0.1414027 -0.036245342 -0.08578955 -0.03911291 0.11031595 0.051573254 -0.08972217
0.09107442 -0.15473829 0.08974578 0.07223384 -0.15073174 0.13431804 0.09643721 0.018097818
0.09661295 0.12360118 -0.13172702 0.13831043 0.16837418 -0.11871085 0.16412137 -0.06867994
-0.09195037 0.13000844 -0.043571446 -0.12114293 0.010874863 -0.114383385 -0.17526366 -0.031853136
0.096316114 -0.018334202 -0.1015082 -0.056297727 0.084485024 0.14677943 -0.004916012 0.014984643
0.1460671 0.17920353 -0.058983464 -0.003441172 0.10177104 0.07059549 -0.09588344 -0.029221997
0.048556723 0.1589254 -0.039735563 0.13756967 0.05217307 0.1677967 -0.04403991 0.07958949
-0.048822876 0.1600438 -0.040725436 0.10444206 0.03458171 -0.0032583592 0.1441103 0.13397764
0.2210228 0.16378388 0.091701925 0.106246516 -0.027456613 -0.074941434 0.078476675 0.14927782
0.18010138 -0.0017451355 -0.01573736 0.14679255 0.040259045 0.11237456 0.1665496 0.11815341
0.17941393 0.21802111 0.02717107 -0.0041254167 -0.010503381 0.04143431 -0.0688666 0.07558883
0.12828933 -0.005434195 -0.056534115 0.18730178 0.15422751 -0.030143071 0.10145019 -0.053354654
0.14672251 0.024879128 0.0144479675 0.27036148 0.047567964 -0.0733823 0.12428442 0.09617794

lstm.bias_hh_l1 f4 [256]
00000000: afc7 88bc 082f 773e 0609 9e3d bc2b 81b9
00000010: 0d14 903d 5bec 833e fa49 e83d 2a0d 91bc
00000020: f0ea d33c d073 d73c 7b07 823c 4e53 753d
00000030: 2ba1 3c3e 74e8 febc f0c6 a3bd 64cf 413e
00000040: 8746 133c 1a8d e03d 6d52 cb3d 8f65 de3d
00000050: 8d23 443e dc88 a73d cc17 313d 34bc 263e
00000060: 1d0f 133e a935 0b3e 99a5 ea3d e3b0 8e3d
00000070: f401 353e 63fe d23d 0457 e8bc 319a d73d
00000080: f928 d73d 1e25 213b a1b9 233e 487d 543e
00000090: 6d43 273e 0aa2 273e 8ef7 9e3d 633d 0abd
000000a0: c88d 5a3d 4766 0c3e 2705 07bd 4f06 a33d
000000b0: 65af 293e 210b 813d 242b 023c b49b 0a3d
000000c0: cef3 373c 9efc 3e3e faa9 453d 88eb 543e
000000d0: f615 973d eb70 c43c 14d6 783d f65f 1ebd
000000e0: dad1 2a3e 4e4e ae3d 274b 103d dab5 5c3e
000000f0: d9db 573e e0fe 273e b57c 4ebc ac81 833c
00000100: 816f 4ebc ab84 2ebd c1d5 f1bc abfe 9f3d
00000110: 1774 b93d c57f 17be 3a4a 843d 4d75 4dbd
00000120: c524 93bc 9990 bbbd 91c4 973d 2fd7 4e3c
00000130: 8180 2abb 1f94 eebd 5336 9a3d 9b72 d4bd
00000140: d4d6 c23d 6174 fbbd e5a8 d3bd 9fa1 8bbd
00000150: 93f4 05be d000 033c 772b 473d 79c5 50be
00000160: d4cd dbbd 5ec8 5c3d b44d 8f3d 6a8a abbd
00000170: 813b 4a3d ce72 0abd d351 4cbd e2f0 bcbd
00000180: 498c bcbd dc41 173d 4209 f83b 8468 c9bd
00000190: 305b 11ba 29d8 643d 5a79 2ebe 80e7 28bd
000001a0: 58a0 043e ed15 c1bd ad22 7fbc 0885 1d3e
000001b0: 36f6 023e 6aab f4bc c0c2 1a3b f78c 98bd
000001c0: ad0c b4bd 4905 35bd 2b17 b6bb de36 04be
000001d0: 61ca 06be f75b 0cbe 6d6b e53d d7b0 be3d
000001e0: c6eb 30be da2c 003e e8e1 ae3d 682b 3cbe
000001f0: ebe9 aa3b d52f 07be d761 2bbd 7bb8 8fbe
00000200: bf8e 3e3e e6b4 32b9 d9ed 233e 00bb 113c
00000210: e36f e53d 972b b93d 09ac 0f3b 6ea8 883d
00000220: 3a02 d1bb de86 e63a 423b 813d c72a 43be
00000230: 8a1c 50bd c619 d53d 3a1a 3a3d b6f4 963d
00000240: bc25 08bd ca9f c2bd 95ae a63d 9a04 00bd
00000250: 8339 3c3d 5704 0c3d 7f09 51be ee01 7fbd
00000260: 9b8d 043a b513 9f3d e656 ffbd b0ae 30be
00000270: f2d5 093b 3326 423d 95b9 da3d 0f02 f3ba
00000280: 66e7 dbbd cfe7 bcbd 4e2a d6bc a2c8 733c
00000290: 3473 1a3c 05d3 993d 7722 b73d d781 c63d
000002a0: ca26 b83d 0a95 3e3e 490d 08be 0434 ae3d
000002b0: edb1 c4bc 9f15 76bc 5d2d 8b3d cc2c 823d
000002c0: 90ab f3bd 682a 86bd 11ed dbbd 222f 953d
000002d0: 9c68 bf3d e03a c23d ae12 a6bd f9f6 253d
000002e0: 4bdd 083d e59d 75bd 257a 92bd 1ae5 023b
000002f0: d670 8ebc b91a 123d 2acd ddbd 2852 d1bd
00000300: 3097 833d bdd3 e33d 291d 053e df0c ac3d
00000310: a856 bbbd 7e4a 713e e26f 2bbb b5ae 10bd
00000320: 345c 723e 3dfc 503e 22db 273d 2693 0d3e
00000330: 733c 1e3e c3c2 993b 9a41 3abc b5d9 cb3d
00000340: efbf 09bd da7d 093e 5e79 e53a 8631 073e
00000350: dce0 a33c 4a73 003e 429d 0d3c d9fc 5e3d
00000360: 217b 403e ea51 9bbb a61b c5bd 7420 bd3d
00000370: f6d2 883d b4d3 80bd 73cb dd3d 7bc9 8d3d
00000380: 34ad 0f3e 14f7 423d 0010 d93c 665f 393e
00000390: fbfc 21bc 1441 603d c5e9 153e ecdd c13d
000003a0: 6088 2b3e f27f e73c 10d8 0ebd da4c 80bd
000003b0: 683e 2f3e 91ea 46bd 6cb1 8d3c ef0f c3bc
000003c0: 567b 8f3c cdd2 d03d c57a 433c 5a5a 5f3e
000003d0: 6573 3a3e 2641 d8bc 9293 0b3d 7b77 d53c
000003e0: ca58 953d fb3b 95bc 156d 15be 7c5c 893e
000003f0: 44ef c53d de1d 03bd 3b1b 173d f5d0 6c3e
-0.016696779 0.24139035 0.07716565 -0.00024637382 0.070350744 0.25766262 0.11342235 -0.017706472
0.025868863 0.02630034 0.015872708 0.0598939 0.18420856 -0.031116702 -0.07996929 0.1892677
0.008988983 0.10964413 0.09927831 0.108592145 0.19154187 0.08180401 0.043235585 0.16282731
0.14361234 0.13594688 0.114573665 0.06967332 0.17676526 0.10302427 -0.028361805 0.105274566
0.10505862 0.0024588774 0.1598878 0.20750916 0.16334315 0.16370407 0.07762061 -0.03374995
0.05335787 0.1371089 -0.032963898 0.07960188 0.16570814 0.06300951 0.007944856 0.033839896
0.011227561 0.18651053 0.048257805 0.20792973 0.073772356 0.023979625 0.060751036 -0.038665734
0.16681615 0.08511029 0.03522792 0.21553746 0.21079959 0.16405821 -0.012602975 0.016053043
-0.012599827 -0.04260699 -0.029520871 0.07812246 0.090553455 -0.14794834 0.0645947 -0.050160695
-0.017961869 -0.09158439 0.07410539 0.012624546 -0.0026016536 -0.116493456 0.07529893 -0.10373422
0.095136315 -0.12278057 -0.103349485 -0.06817936 -0.13081579 0.007995799 0.048625436 -0.2038783
-0.10732618 0.053902023 0.069972426 -0.0837601 0.049373154 -0.033800893 -0.04988272 -0.09225632
-0.09206445 0.036928043 0.007569463 -0.09834388 -0.0005544899 0.05587021 -0.1703848 -0.0412364
0.12951791 -0.0942801 -0.015572232 0.15382779 0.12789235 -0.029866893 0.0023614615 -0.07448762
-0.0879148 -0.044194493 -0.005556961 -0.12911555 -0.13163139 -0.13706957 0.112021305 0.09311073
-0.1727744 0.1251711 0.08539182 -0.18375933 0.0052158735 -0.1320184 -0.041841354 -0.28070435
0.18609141 -0.00017042793 0.160087 0.008894682 0.11202981 0.09041517 0.002192261 0.066727504
-0.0063784393 0.0017587801 0.06310131 -0.19059287 -0.050808467 0.104053065 0.045435168 0.07370894
-0.03323911 -0.095031336 0.08138768 -0.03125439 0.045953285 0.034183826 -0.20413779 -0.0622577
0.0005056501 0.07767431 -0.124677464 -0.17254138 0.0021032062 0.04739971 0.10679928 -0.0018540042
-0.10737495 -0.092239015 -0.02614322 0.014879378 0.009426881 0.07510952 0.089421205 0.09692734
0.089917734 0.18611541 -0.13286318 0.08506015 -0.024010623 -0.015019803 0.06795762 0.063562006
-0.11897957 -0.06551057 -0.10738576 0.072843805 0.093461245 0.09483886 -0.081090316 0.040518735
0.033414166 -0.059965033 -0.071522035 0.001997298 -0.017387789 0.035670016 -0.108301476 -0.10220748
0.06425321 0.1112437 0.12999405 0.084008925 -0.09147388 0.23563573 -0.0026159217 -0.035322864
0.23667985 0.20408721 0.040980466 0.13825664 0.15452747 0.004692407 -0.01136818 0.09953634
-0.033630308 0.13426915 0.0017507484 0.13202485 0.020004682 0.1254398 0.00864345 0.054440353
0.1879697 -0.0047399895 -0.09624414 0.092347056 0.066808626 -0.06290379 0.108298205 0.06923195
0.14030915 0.047598913 0.026496887 0.18102798 -0.009886975 0.054749563 0.14639957 0.09466156
0.16751242 0.028259251 -0.034874022 -0.06264658 0.1711365 -0.048563544 0.017296515 -0.023811309
0.017514866 0.10196457 0.011931126 0.2181181 0.18208082 -0.026398253 0.03407628 0.02605795
0.07292326 -0.018217077 -0.14592393 0.26828372 0.09664777 -0.032010905 0.036891203 0.23126586
